checkpoints/ric/epoch0.pt (torch, 34466 bytes, 8 tensors)

network.0.weight f4 [16, 6, 5]
0	0xbe2cd009	-0.16876234
1	0x3d0cd58a	0.034383334
2	0xbd90e697	-0.070752315
3	0xbd9fce95	-0.07803074
4	0xbdb95c09	-0.090507574
5	0xbe33011c	-0.17480892
6	0x3e04bb12	0.12961987
7	0xbdc217d9	-0.09477205
8	0xbddbe915	-0.10737816
9	0x3e143c56	0.14476141
10	0xbda48910	-0.08033955
11	0xbc2f2d0f	-0.010691895
12	0x3da6a8ee	0.081376895
13	0xbcf8b602	-0.030360226
14	0xbc6a697d	-0.014307377
15	0xbd2accbd	-0.04169916
16	0xbe0977ec	-0.13424653
17	0xbe37bdc7	-0.17943488
18	0xbda4d4b2	-0.08048381
19	0xbe37ec3c	-0.1796121
20	0x3c5984f1	0.013276325
21	0xbb524c04	-0.0032088766
22	0xbe0aecad	-0.13566847
23	0x3e246918	0.16055715
24	0xbdec985c	-0.11552498
25	0xbdf97431	-0.12180365
26	0xbda9fbf4	-0.08300009
27	0xbdd25707	-0.102705054
28	0x3e284934	0.16434175
29	0xbde14c82	-0.11000921
30	0x3dec7051	0.1154486
31	0x3d375ce5	0.044766326
32	0xbe328a83	-0.1743565
33	0x3db36975	0.08760349
34	0x3e310fb0	0.1729114
35	0x3d815ec9	0.06316907
36	0xbe120c7d	-0.14262576
37	0x3e18c69a	0.1491951
38	0xbe25b1f0	-0.16181159
39	0xbe002507	-0.12514125
40	0x3e14ba3b	0.14524166
41	0xbd8fe0c4	-0.070252925
42	0xbca9a66d	-0.02070924
43	0x3d49a523	0.049229752
44	0xbd52251a	-0.051304914
45	0xbbf51c8e	-0.0074802106
46	0x3e36cc86	0.17851457
47	0x3c9fcd5a	0.019507099
48	0x3e24fc60	0.16111898
49	0x3d346855	0.04404481
50	0xbd9f8516	-0.07789056
51	0x3dedd5d8	0.11613053
52	0xbe23aeed	-0.15984698
53	0xbe109bb6	-0.14121899
54	0xbd3a2ddc	-0.04545389
55	0xbe26887a	-0.16262999
56	0xbe23cc03	-0.15995793
57	0x3e2d0816	0.16897616
58	0x3d136724	0.035987034
59	0xbe15e36b	-0.14637534
60	0x3c7b35bf	0.015332638
61	0xbb5b0bd6	-0.0033423803
62	0x3e20d542	0.15706351
63	0x3dd3f0d9	0.103486724
64	0xbdac5083	-0.08413794
65	0xbe1f16c3	-0.15536027
66	0xbdc1361e	-0.0943415
67	0xbd096a24	-0.03354849
68	0xbc05139d	-0.008122352
69	0x3e135837	0.1438912
70	0x3e16fb62	0.14744332
71	0xbe2c8122	-0.16846135
72	0x3c15ad1e	0.009135513
73	0xbd5f16df	-0.05446517
74	0x3d951482	0.07279302
75	0xbe02d472	-0.12776354
76	0xbe029450	-0.12751889
77	0xbb712fab	-0.0036802094
78	0xbd77df9f	-0.060515996
79	0xbe33ddbd	-0.17565055
80	0x3e00cca7	0.12578069
81	0xbdc0acd9	-0.09407968
82	0xbd236220	-0.0398885
83	0xbd58a074	-0.052887395
84	0x3e038fb2	0.12847784
85	0x3d196157	0.037446346
86	0x3e135958	0.1438955
87	0xbdcf335e	-0.101172194
88	0xbd9c5804	-0.07633975
89	0xbda86796	-0.082228824
90	0x3e013a0f	0.12619804
91	0x3e03483d	0.12820525
92	0x3ca8a0fb	0.020584574
93	0xbd872b46	-0.06600051
94	0xbd63a47e	-0.055576794
95	0xbe1f9082	-0.15582469
96	0x3de34c0c	0.11098489
97	0x3dfce9b9	0.123492666
98	0xbd8e4212	-0.06946196
99	0x3e0eca20	0.13944292
100	0x3ddecbe4	0.10878733
101	0x3d752cab	0.05985705
102	0x3cd94de6	0.026526403
103	0xbe11666b	-0.14199226
104	0x3d8aa7de	0.067702994
105	0x3dce908f	0.10086166
106	0x3d7b91ac	0.06141822
107	0x3d4f28c2	0.05057598
108	0x3db7c277	0.08972638
109	0x3cf3e6a3	0.029773062
110	0x3ddf5007	0.10903936
111	0x3a034556	0.0005007585
112	0xbe316659	-0.17324199
113	0x3d2381d9	0.039918754
114	0xbdbb03f9	-0.09131617
115	0x3cbf8b0b	0.02338173
116	0x3e0873a9	0.13325371
117	0xba8d9616	-0.0010802175
118	0x3e163486	0.14668474
119	0x3df8ecad	0.12154517
120	0x3dbc71ee	0.09201418
121	0x3b31106c	0.0027017845
122	0xbdb187d9	-0.08668489
123	0x3e2b2090	0.1671164
124	0x3da5bfbf	0.08093213
125	0xbdb40d0b	-0.0879155
126	0x3c157788	0.009122737
127	0x3de2e22d	0.11078296
128	0xbdfa50d8	-0.12222451
129	0x3d836162	0.06415059
130	0xbdbb6976	-0.091509745
131	0x3db30ee3	0.08743074
132	0xbbc06b3f	-0.0058721597
133	0xbda79a62	-0.08183743
134	0x3d274dd4	0.040845707
135	0x3c67bc78	0.014144056
136	0xbc9acf55	-0.018897692
137	0x3e37dd3d	0.1795549
138	0x3e1fb091	0.15594698
139	0xbd27e6f0	-0.040991724
140	0x3d5bc162	0.05365122
141	0x3d701f04	0.05862333
142	0x3dd0277e	0.101637825
143	0xbd6cdf41	-0.0578301
144	0xbc112c6f	-0.008860691
145	0xbd8e391a	-0.06944485
146	0x3d8f5582	0.06998731
147	0x3df3d164	0.119051725
148	0xbc01991b	-0.007910038
149	0x3e1eccc9	0.15507807
150	0xbdd6821b	-0.104740344
151	0x3c5ee22d	0.013603729
152	0x3ce835a7	0.028345896
153	0xbdf99012	-0.12185682
154	0xbdb4b7e3	-0.08824136
155	0x3e064571	0.13112427
156	0x3c43f6ea	0.011960724
157	0xbde0fc6d	-0.109856464
158	0x3c0cf555	0.008603414
159	0x3cf82bf0	0.030294389
160	0x3cf2c05f	0.029632745
161	0x3d3b9f35	0.04580613
162	0xbda05712	-0.07829107
163	0x3d617c29	0.05505005
164	0x3dc29f1a	0.095030025
165	0x3e139200	0.14411163
166	0x3cf3661b	0.029711774
167	0x3da05954	0.07829538
168	0xbc8b384e	-0.016994622
169	0x3e3a0cea	0.18168989
170	0xbd610c9b	-0.054943662
171	0xbd07002d	-0.032959152
172	0xbd8d0a77	-0.06886762
173	0xbe1e9c15	-0.15489228
174	0x3d96805b	0.073487006
175	0x3d24011a	0.040040113
176	0x3e021924	0.12704903
177	0xbcc1246c	-0.023576938
178	0x3e1d4994	0.15360099
179	0x3c810d9f	0.015753565
180	0xbda38f33	-0.079862975
181	0x3e3ab171	0.18231751
182	0x3cb69159	0.022286104
183	0xbdd76514	-0.10517326
184	0x3c817e8b	0.01580741
185	0x3c59d804	0.013296131
186	0xbe24e879	-0.16104306
187	0xbdca7e90	-0.09887421
188	0x3e0ba191	0.13635851
189	0xbc56c5ab	-0.013108651
190	0x3e1b78b0	0.15182757
191	0xbded34d6	-0.11582343
192	0x3d3a1f00	0.04543972
193	0x3e0f782e	0.14010689
194	0xbb83316f	-0.0040036957
195	0xbd2b564e	-0.041830353
196	0xbe07d1d1	-0.13263632
197	0x3dd0f105	0.10202221
198	0xbc1cf793	-0.009580511
199	0xbd65cb92	-0.056102343
200	0x3da6e0b1	0.08148325
201	0x3c0b8aa6	0.008516943
202	0x3dc85669	0.097821064
203	0x3dbc0a6f	0.091816776
204	0x3ab3e197	0.0013723847
205	0xbe16e747	-0.14736663
206	0x3db95888	0.09050089
207	0x3df28867	0.11842423
208	0x3de7621b	0.11298009
209	0x3d89e89c	0.0673382
210	0x3dfb865b	0.12281486
211	0x3d99aa53	0.0750319
212	0xbe3762b3	-0.17908745
213	0x3d47ad82	0.048749454
214	0x3c9b3149	0.0189444
215	0x3dc9a3ee	0.0984572
216	0xbe1b9acb	-0.15195768
217	0xbcc21066	-0.02368946
218	0xbd46c3b9	-0.0485265
219	0xbc19c8ed	-0.009386283
220	0x3e1aeaf2	0.15128687
221	0x3d2c98f0	0.04213804
222	0x3db99014	0.09060684
223	0x3da8d41d	0.082435824
224	0xbcac1088	-0.021003976
225	0x3db2e64a	0.087353304
226	0x3dfa9b39	0.122366376
227	0x3d9958ce	0.07487641
228	0xbe06df07	-0.13171016
229	0xbc9457fa	-0.018108357
230	0x3e0b3610	0.13594842
231	0x3e2216bb	0.15828983
232	0xbd8d1675	-0.06889049
233	0x3d9be55f	0.076121084
234	0xbe03cb23	-0.1287046
235	0xbde44f62	-0.111479536
236	0xbe0a1577	-0.1348475
237	0x3dd8e7b3	0.10591068
238	0xbe14aa06	-0.14517984
239	0x3e06c6bb	0.13161747
240	0xbd6caed3	-0.057783913
241	0x3e0a8190	0.13525987
242	0x3d68175e	0.05666291
243	0xbce5c92c	-0.028050028
244	0xbe302445	-0.17201336
245	0x3db6a6d6	0.0891854
246	0xbdb18bb8	-0.08669227
247	0xbdd6d28a	-0.10489376
248	0x3d9bbbd0	0.07604182
249	0x3e29336e	0.16523525
250	0xbdeb9d9a	-0.115046695
251	0xbe218bac	-0.15775937
252	0x3d891727	0.06693869
253	0x3b2986fb	0.0025867808
254	0x3d75ac72	0.05997891
255	0xbe2d8191	-0.16943957

network.0.bias f4 [16]
0	0xbda9788e	-0.08274947
1	0x3dbb6c4a	0.09151514
2	0xbd945176	-0.072421
3	0x3d980b9b	0.074240886
4	0x3e1bac09	0.15202345
5	0x3d94e18c	0.07269582
6	0xbdcba089	-0.09942729
7	0x3d9c3b7a	0.07628532
8	0x3dce52df	0.100744
9	0xbcfcf1ff	-0.030877111
10	0xbe30f064	-0.17279202
11	0x3df0c21a	0.11755772
12	0xbd6a4686	-0.057196163
13	0x3c80d5fb	0.015727034
14	0xbdb582d7	-0.08862846
15	0x3e2e8981	0.17044641

network.2.weight f4 [16, 16, 5]
0	0x3dc18e6a	0.094509915
1	0x3d918cfe	0.0710697
2	0xbd5ac6cf	-0.053412255
3	0x3dbdb59f	0.09263157
4	0xbda05af4	-0.07829848
5	0x3d3bd7db	0.045860153
6	0x3db288b6	0.08717482
7	0xbcb52d31	-0.022116276
8	0xbd278c0f	-0.040905055
9	0xb90e93c9	-0.0001359723
10	0xbd530226	-0.05151572
11	0xbd7dde8f	-0.061979827
12	0x3d646893	0.055763792
13	0xbde4a278	-0.11163801
14	0xbd90609a	-0.07049675
15	0x3ceadccb	0.028669735
16	0x3d73c1a8	0.059510857
17	0xbd6689e9	-0.056283865
18	0xbde2845b	-0.11060401
19	0xbca18770	-0.019717902
20	0xbdb93e98	-0.09045142
21	0x3d97b80a	0.074081495
22	0x3d8d4c89	0.068993635
23	0x3dbe5f35	0.09295503
24	0xbdac7047	-0.08419853
25	0x3c1c66ec	0.009546023
26	0xbda3ccb6	-0.0799803
27	0xbdb21fd5	-0.08697478
28	0xbdb5a6c7	-0.08869701
29	0x3dcac382	0.099005714
30	0xbd3b6884	-0.04575397
31	0xbc2309f1	-0.009951101
32	0xbda5bfae	-0.080932006
33	0xbdddbac4	-0.10826638
34	0xbd96ad11	-0.073572285
35	0x3dab4d26	0.08364324
36	0x3dafb646	0.08579688
37	0xbd803c71	-0.06261528
38	0xbc765267	-0.015034295
39	0xbda48926	-0.080339715
40	0x3dab56c0	0.083661556
41	0x3dc8dbe6	0.09807567
42	0xbcb1afcd	-0.021690274
43	0x3de35180	0.11099529
44	0xbdb8c0ac	-0.09021124
45	0xbc9a8790	-0.01886347
46	0xbce1bb60	-0.027555168
47	0xbdb9df6a	-0.09075816
48	0x3ce07f9d	0.0274046
49	0xbd37203a	-0.044708468
50	0xbd51638d	-0.05112033
51	0x3cd49bda	0.025953222
52	0x3dd2d754	0.10294977
53	0xbd9147fd	-0.07093809
54	0x3d8880f6	0.06665222
55	0xbca38800	-0.01996231
56	0xbd88054d	-0.06641636
57	0x3db3ecd0	0.08785403
58	0xbd24c87c	-0.04023026
59	0xbdb43e3a	-0.08800931
60	0xbdbe7e1b	-0.093013965
61	0x3d9895e6	0.07450466
62	0xbd606f06	-0.05479338
63	0x3cd02164	0.025406547
64	0x3dd74e4d	0.105129816
65	0xbddb6ab4	-0.107137114
66	0x3dde8bfb	0.10866543
67	0xbd0c2010	-0.034210265
68	0xbdb96b3b	-0.09053656
69	0xbd99bd23	-0.07506778
70	0x3b2b0111	0.0026093165
71	0xbd162b35	-0.0366623
72	0xbd2ff68a	-0.042959727
73	0xbd2eb3e7	-0.042652037
74	0xbdd47342	-0.10373546
75	0xbc9b6114	-0.018967189
76	0xbd967e35	-0.07348291
77	0x3dbb9f8f	0.09161293
78	0xbdc206a5	-0.094739236
79	0xbd59e8c1	-0.053200487
80	0xbda1ed69	-0.079066105
81	0x3d152a16	0.03641709
82	0xbcd31e52	-0.025771294
83	0xbca4c61c	-0.020113997
84	0x3de45ab1	0.111501105
85	0xbc938ae8	-0.018010572
86	0x3db7c4cd	0.08973084
87	0x3dd50399	0.10401077
88	0x3d883e79	0.06652541
89	0xbd7f5603	-0.062337887
90	0x3c05e3bc	0.008171972
91	0x3d6ab6e4	0.057303324
92	0xbd9f7aeb	-0.077871166
93	0xbd26906b	-0.04066507
94	0x3d845de8	0.06463224
95	0x3d746ff5	0.059677083
96	0xbcfb51da	-0.030678678
97	0xbd9ea7ae	-0.07746826
98	0x3d1f37fc	0.03887175
99	0xbc79fd70	-0.015258178
100	0x3dd50652	0.10401596
101	0xbd29e313	-0.04147632
102	0xbdd49545	-0.103800334
103	0xbdc9d339	-0.09854741
104	0xbda4575c	-0.08024475
105	0xbc68c609	-0.0142073715
106	0xbdb5d41d	-0.08878348
107	0xbd856306	-0.06513028
108	0x3daf193f	0.08549737
109	0xbd85f069	-0.06539995
110	0x3d90dfad	0.07073913
111	0xbd8bc8cd	-0.06825409
112	0x3dbb7b2e	0.09154354
113	0xbd0bdd14	-0.034146383
114	0xbd93dfc0	-0.07220411
115	0x3dd28312	0.10278906
116	0x3b32ab71	0.0027262832
117	0x3cf3d6d4	0.029765524
118	0xbd51eb21	-0.051249627
119	0xbd87889f	-0.06617855
120	0x3dbb07b9	0.09132332
121	0x3c8cdb8f	0.017194537
122	0xbd92071a	-0.07130261
123	0x3dde0229	0.10840256
124	0xbd223955	-0.039605457
125	0xbda24454	-0.07923189
126	0x3c1f701f	0.009731322
127	0xbdcc61ad	-0.09979568
128	0x3dc796b4	0.09745541
129	0xbdb62c32	-0.08895148
130	0xbdaa65b4	-0.083201796
131	0x3af8f718	0.0018994538
132	0x3d943693	0.07236972
133	0xbc8f0f3e	-0.017463323
134	0x3da1e67c	0.079052895
135	0x3d183cc0	0.03716731
136	0xbd8793a2	-0.066199556
137	0x3c7831d1	0.015148596
138	0xbbc448b2	-0.0059901113
139	0x3dbf85a7	0.09351664
140	0xbda6250a	-0.081125334
141	0x3d164204	0.03668405
142	0xbd6193c1	-0.05507255
143	0x3cf8a1a5	0.030350516
144	0x3dde6ee9	0.10860998
145	0xbdadc1e2	-0.08484246
146	0xbda345b7	-0.079722814
147	0xbd0f63c1	-0.035007242
148	0x3d1bced0	0.03803903
149	0xbd2eecc5	-0.04270627
150	0x3d4e3c4e	0.05035048
151	0xbd6a4892	-0.057198115
152	0xbc10b5aa	-0.008832375
153	0xbdd8f6d1	-0.105939515
154	0x3ccd728e	0.025079038
155	0x3d39fe62	0.045408614
156	0x3ddf05ee	0.10889803
157	0xbda19769	-0.07890207
158	0xbdddda7a	-0.10832687
159	0x3dd4f948	0.10399109
160	0xbd1af09e	-0.037827127
161	0xbdc43bdc	-0.0958173
162	0x3da06c0b	0.078331076
163	0xbc6c11ee	-0.014408572
164	0x3dafa698	0.08576697
165	0xbdb99bd4	-0.09062925
166	0x3dcad689	0.099042006
167	0x3da74252	0.081669465
168	0x3daca1c0	0.08429289
169	0x3dc12ace	0.094319925
170	0xbcb7f02e	-0.022453394
171	0x3ba71b72	0.0050997073
172	0x3db69b7f	0.08916377
173	0xbcd9d5a9	-0.026591139
174	0xbdb08bd7	-0.08620422
175	0xbdb5ea61	-0.08882595
176	0xbdd9cbff	-0.10634612
177	0x3dcefd40	0.10106897
178	0x3da58236	0.080814764
179	0xbbd3bd6b	-0.0064617894
180	0x3dad0a5f	0.08449244
181	0x3ddbaad3	0.107259415
182	0x3cea997d	0.028637642
183	0x3d7980fd	0.06091403
184	0xbdd19470	-0.1023339
185	0xbc1cedb3	-0.009578156
186	0xbdc15581	-0.09440137
187	0xbd4ce5e4	-0.05002393
188	0x3de3966f	0.11112677
189	0x3c44d135	0.0120127695
190	0x3de42b9a	0.11141129
191	0xbdd4985f	-0.10380625
192	0xbc22254e	-0.009896589
193	0xbc42277c	-0.011850234
194	0x3db01ce0	0.085992575
195	0xbd80dd74	-0.06292239
196	0x3dd4ad35	0.10384599
197	0xbd0141d3	-0.031556915
198	0x3de30887	0.11085611
199	0xbcdba907	-0.026813997
200	0xbc199025	-0.009372746
201	0xbce8a2a7	-0.028397871
202	0x3c5e8e01	0.013583661
203	0x3ddee610	0.10883725
204	0xbc63186d	-0.013860804
205	0xbd6dc560	-0.05804956
206	0x3d83e219	0.06439609
207	0xbc498115	-0.012298842
208	0x3d8f913e	0.070101246
209	0x3d9b7c88	0.07592112
210	0x3c65dcec	0.014029723
211	0xbd2d2dab	-0.04227988
212	0x3dbcf82c	0.092270225
213	0xbb2ea510	-0.0026648678
214	0xbc64ca64	-0.013964269
215	0xbd306299	-0.04306278
216	0x3d8173cc	0.063209146
217	0x3cd90840	0.026493192
218	0xbd7baa02	-0.06144143
219	0x3dcc0e66	0.09963684
220	0x3dafeb2d	0.08589778
221	0xbd2c8dea	-0.042127527
222	0x3dc4c83a	0.09608503
223	0xbbbcca26	-0.0057614027
224	0xbdd9f739	-0.10642857
225	0x3c65936a	0.014012197
226	0x3d6e1e9f	0.05813467
227	0xbd8a8371	-0.06763352
228	0x3cbce1da	0.023056913
229	0xbd3a0627	-0.045416024
230	0x3c8f0409	0.017457979
231	0xbc71a1f8	-0.014748089
232	0xbd0cc878	-0.03437087
233	0x3dce99eb	0.10087951
234	0x3d93b0bb	0.07211443
235	0x3d181caa	0.03713671
236	0xbd05bd1b	-0.03265105
237	0x3bcd9085	0.0062733316
238	0x3ddf756d	0.10911069
239	0x3c82789f	0.015926657
240	0x3d99704f	0.07492124
241	0xbd01e6df	-0.031714316
242	0xbd1636b9	-0.03667328
243	0x3c261d34	0.0101387985
244	0x3d98d6e8	0.07462865
245	0x3d90038a	0.07031925
246	0xbbec053d	-0.007202773
247	0x3c92e521	0.017931523
248	0xbdcf814a	-0.10132082
249	0xbdde7ae8	-0.10863286
250	0x3cb38511	0.021914037
251	0x3d001eb0	0.031279266
252	0xbdc48b61	-0.09596897
253	0x3d92dfb5	0.07171575
254	0x3d9e7697	0.07737463
255	0xbd15838f	-0.036502417

network.2.bias f4 [16]
0	0xbd2ec33c	-0.04266666
1	0x3d5fc1c6	0.054628156
2	0x3cd0ff6f	0.025512425
3	0x3d7a3823	0.061088692
4	0xbda6c14a	-0.08142336
5	0x3d8ceaf7	0.068807535
6	0xbb77bf9c	-0.0037803417
7	0xbd5765bb	-0.052587252
8	0xbd73a6cf	-0.059485253
9	0xbc0db4cb	-0.008649061
10	0x3b96e07f	0.0046043987
11	0x3d37e8f8	0.04489991
12	0x3ddd3ad1	0.10802234
13	0xbd74d833	-0.059776496
14	0x3dbb29cb	0.09138831
15	0xbd444557	-0.04791769

network.4.weight f4 [8, 16, 5]
0	0x3dd7d3a0	0.10538411
1	0xbc4822cd	-0.012215328
2	0x3d88f493	0.06687274
3	0x3d5cab24	0.05387415
4	0x3a34dceb	0.00068993744
5	0x3b225638	0.0024770629
6	0x3d03e154	0.03219731
7	0xbd8585c4	-0.065196544
8	0x3a6d730f	0.00090579776
9	0x3d0e4ae3	0.034739386
10	0x3a3010de	0.00067163806
11	0x3da26be1	0.079307325
12	0xbcf518ae	-0.029918995
13	0x3d6ed63b	0.058309775
14	0xbdbfc335	-0.09363405
15	0x3d9b9a10	0.075977445
16	0x3bdaf98d	0.006682581
17	0xbc71c5a2	-0.014756592
18	0xbdb00584	-0.08594802
19	0x3dad5ee0	0.084653616
20	0x3dad3e53	0.08459153
21	0xbbdcaf7d	-0.006734787
22	0x3dc7db93	0.09758677
23	0x3d87ea9d	0.06636546
24	0x3ddac620	0.106823206
25	0xbdb18bce	-0.08669244
26	0xbdbddb50	-0.09270346
27	0xbd727758	-0.059195846
28	0x3dcd1896	0.10014455
29	0xbc969a65	-0.018384168
30	0xbde306a6	-0.110852525
31	0xbd757460	-0.059925437
32	0x3dbdb1e0	0.092624426
33	0x3dafe6fa	0.08588977
34	0x3d706c98	0.058697313
35	0x3d0b7129	0.034043465
36	0xbde3699a	-0.11104126
37	0x3da38bb6	0.07985632
38	0xbd5c340b	-0.05376057
39	0xbcbd9796	-0.02314357
40	0xbd7217de	-0.059104793
41	0x3d339b83	0.04384948
42	0xbc165a1c	-0.009176757
43	0x3c689e59	0.014197909
44	0xbd68375d	-0.056693424
45	0xbc9ad967	-0.018902494
46	0x3d9afab5	0.0756735
47	0xbdd20b25	-0.10256032
48	0xbd60e733	-0.05490799
49	0x3dd01360	0.101599455
50	0xbd075859	-0.03304324
51	0x3d961b01	0.07329369
52	0xbd0b303b	-0.033981543
53	0x3d6b151d	0.057393182
54	0x3d4902d4	0.049074963
55	0x3d7535f2	0.0598659
56	0x3dd5dd64	0.104426175
57	0x3c4aefcc	0.012386274
58	0xbda7cd57	-0.08193462
59	0xbc3035b5	-0.010754992
60	0x3db8d3f9	0.090248056
61	0xbd760c1f	-0.060070153
62	0x3cef169a	0.029185582
63	0xbd5f9a8f	-0.054590758
64	0xbdd86a86	-0.10567193
65	0x3b8b8b33	0.004258537
66	0xbd9ac422	-0.075569406
67	0x3d5ef2a8	0.054430634
68	0xbcbb5081	-0.022865536
69	0x3d07ed0c	0.03318505
70	0x3d38e9a1	0.04514468
71	0xbc457fbc	-0.01205438
72	0x3cf78030	0.030212492
73	0x3c3527f0	0.011056885
74	0x3ddefdb6	0.10888235
75	0x3c897336	0.01677857
76	0xbd6bc8fe	-0.057564728
77	0x3a812c51	0.0009855126
78	0xbceed7b6	-0.029155593
79	0xbd9f245d	-0.077706076
80	0xbcc6a710	-0.024249583
81	0xbd3595f4	-0.04433246
82	0x39ce4fed	0.0003935093
83	0xbddcc289	-0.10779292
84	0xbd32480c	-0.04352574
85	0xbd82a302	-0.063787475
86	0x3da9f240	0.08298159
87	0x3ddfc930	0.10927045
88	0xbd900df0	-0.07033908
89	0x3ddf8867	0.109146886
90	0x3dd93fb8	0.106078565
91	0xbdbd9c8b	-0.09258374
92	0x3d2a8216	0.041627966
93	0xbb0477fc	-0.0020213118
94	0x3d8ff9b4	0.07030049
95	0x3dadc598	0.08484954
96	0xbd54b982	-0.051934727
97	0xbd734290	-0.05938965
98	0x3d296e5e	0.04136502
99	0x3da7e26e	0.08197485
100	0xbce901cc	-0.02844324
101	0x3d3ea1c0	0.046540976
102	0x3d0403eb	0.0322303
103	0x3d1e63af	0.038669284
104	0xbdc9a0b7	-0.09845107
105	0xbdaf75e5	-0.085674085
106	0xbdafbb2a	-0.085806206
107	0x3d61b423	0.055103432
108	0x3d4e3e46	0.050352357
109	0x3db6c9ad	0.08925185
110	0xbd2b39a0	-0.041803002
111	0x3c4d3aef	0.012526258
112	0x3d02b6de	0.031912677
113	0xbda787c7	-0.08180194
114	0xbdcd10a6	-0.10012941
115	0xbdb94da1	-0.0904801
116	0x3bba325f	0.0056822742
117	0xbd1aab3b	-0.037760954
118	0x3d9091cc	0.070590585
119	0xbd77b817	-0.060478296
120	0x3d0c1608	0.034200698
121	0xbd9d8938	-0.07692188
122	0x3d64d6f1	0.055869047
123	0xbd5f686a	-0.054542936
124	0x3c357202	0.011074545
125	0xbd65f842	-0.05614496
126	0xbd98ae36	-0.07455103
127	0xbdaf4034	-0.08557168
128	0xbdde87a2	-0.10865714
129	0x3db41fbd	0.08795116
130	0x3d7322da	0.05935941
131	0xbda02f4e	-0.07821523
132	0xbdd1664b	-0.10224589
133	0xbda79c7d	-0.08184145
134	0x3d189dc8	0.037259847
135	0x3d605806	0.054771446
136	0xbd978b08	-0.07399565
137	0xbd831b2a	-0.064016655
138	0xbd4ea7b1	-0.05045289
139	0xbc64b4fb	-0.013959165
140	0xbcc8cd7f	-0.02451205
141	0x3d788eb2	0.06068296
142	0xbdcfd367	-0.10147744
143	0x3d86942f	0.065712325
144	0xbd5b3342	-0.05351568
145	0xbd9faa48	-0.077961504
146	0x3d905184	0.07046798
147	0x3d95c24b	0.07312449
148	0xbbfc894f	-0.007706798
149	0xbdbee04c	-0.09320125
150	0xbd8922f9	-0.06696124
151	0x3d9dfe21	0.07714487
152	0x3ddca13b	0.1077294
153	0xbdc57b66	-0.09642677
154	0x3c2d2577	0.010568014
155	0x3c1b5328	0.009480275
156	0xbc0f81fb	-0.008759017
157	0x3d3e0211	0.04638869
158	0xbd9f6735	-0.07783357
159	0xbc27b86b	-0.01023684
160	0xbdcb5509	-0.099283285
161	0xbd9edb21	-0.07756639
162	0xbdde8cc8	-0.10866696
163	0xbdd069d1	-0.10176433
164	0x3af2e172	0.0018530323
165	0xbcd7bdee	-0.026335683
166	0x3d6d4f28	0.057936817
167	0xbdbd3e09	-0.09240348
168	0xbd8f2e3c	-0.069912404
169	0x3d6e1b01	0.05813122
170	0xbc587659	-0.01321181
171	0xbd2777c8	-0.040885717
172	0xbd3160de	-0.04330527
173	0x3c41f51e	0.011838226
174	0xbc32ab46	-0.010905093
175	0x3d99d941	0.07512141
176	0xbd054c89	-0.032543693
177	0xbc2492a7	-0.01004473
178	0x3b904a64	0.0044033993
179	0x3d9c75d7	0.07639664
180	0xbdca3dcb	-0.09875067
181	0xbdde49a0	-0.108538866
182	0x3c5a0fa9	0.013309398
183	0xbc9d0127	-0.019165589
184	0x3db5ee70	0.08883369
185	0xbc7cda5e	-0.015432922
186	0xbdd46181	-0.1037016
187	0x3d8b3be5	0.06798533
188	0xbdcf8b04	-0.10133937
189	0x3d4698c0	0.048485518
190	0x3d279f7c	0.04092358
191	0xbde00857	-0.10939091
192	0x3d00887f	0.031380173
193	0x3d615224	0.055009976
194	0xbdcd0b23	-0.1001189
195	0x3d9432cd	0.07236252
196	0x3c09966e	0.008397682
197	0xbd9ca35a	-0.07648344
198	0x3c5e2de9	0.0135607505
199	0x3d23e880	0.04001665
200	0xbd2b0f28	-0.0417625
201	0x3d2c4c34	0.04206486
202	0x3dd2550c	0.10270128
203	0xbdb53389	-0.0884772
204	0x3da8d73a	0.08244176
205	0x3d0c8e46	0.03431537
206	0x3d6774cf	0.05650788
207	0x3d74158d	0.059590865
208	0xbda533a6	-0.08066492
209	0x3d9b42a9	0.07581074
210	0x3c663d5b	0.014052714
211	0x3c7973cf	0.015225365
212	0x3d427749	0.04747704
213	0x3d2e628a	0.042574443
214	0x3d72222e	0.059114628
215	0x3d1650f1	0.036698285
216	0xbdbba328	-0.09161979
217	0x3c8f1aad	0.017468775
218	0x3cc35da1	0.023848357
219	0x3d2a1d93	0.04153211
220	0x3d578901	0.05262089
221	0x3da7c528	0.081919014
222	0x3db01c7f	0.08599185
223	0xbd5daa80	-0.05411768
224	0xbc7431eb	-0.0149044795
225	0x3d852fbd	0.06503246
226	0x3dade073	0.08490076
227	0xbd3b4f60	-0.045729995
228	0x3da6bd1d	0.08141539
229	0x3c9af2a5	0.01891453
230	0xbd5347f1	-0.05158228
231	0x3d3513f0	0.044208467
232	0x3ddb2cef	0.1070193
233	0xbb92ee93	-0.0044840067
234	0xbd8c82db	-0.06860896
235	0x3d04cdfd	0.03242301
236	0xbc97fd42	-0.01855338
237	0x3db58a99	0.08864326
238	0x3c7fd259	0.015614116
239	0xbdbab378	-0.09116262
240	0xbd02537a	-0.03181789
241	0x3dbd18e8	0.09233266
242	0xbc1c56b6	-0.009542158
243	0xbd9d9ba7	-0.07695704
244	0xbd84f709	-0.06492431
245	0x3c20dc61	0.009818167
246	0xbd0b71fc	-0.03404425
247	0x3d3f8b4b	0.0467637
248	0x3d464042	0.048401125
249	0x3d0f3533	0.034962844
250	0xbcfacd00	-0.03061533
251	0x3d85b2bf	0.06528234
252	0x3d3f0288	0.046633273
253	0xbda50e03	-0.08059313
254	0x3c8bac2e	0.017049875
255	0x3d3e47e7	0.04645529

network.4.bias f4 [8]
0	0x3bc9cfe7	0.006158817
1	0x3dc117a1	0.09428335
2	0xbcad3d23	-0.021147316
3	0xbd3acef4	-0.045607522
4	0xbd8009a2	-0.06251837
5	0xbd494edb	-0.049147468
6	0xbc90d5b2	-0.017680023
7	0x3d9995cc	0.074992746

network.6.weight f4 [2, 8, 5]
0	0xbd62cac4	-0.055369154
1	0x3de6fb22	0.112783685
2	0xbe0a530d	-0.13508244
3	0x3da0bb3e	0.078482136
4	0x3d2f9869	0.04286996
5	0xbe194b2e	-0.14970085
6	0xbdbbf366	-0.09177284
7	0xbdad060b	-0.08448418
8	0x3ddb7f1d	0.10717604
9	0x3e170764	0.14748913
10	0x3df764f6	0.12079804
11	0xbd217585	-0.039418716
12	0xbdb16e5a	-0.08663626
13	0x3b8be8e8	0.004269708
14	0x3a00bbfe	0.00049108255
15	0x3d6824a5	0.056675572
16	0xbdb3607e	-0.08758639
17	0xbd5e0aee	-0.054209642
18	0xbd2933da	-0.041309215
19	0x3c57bf8d	0.013168228
20	0x3e179023	0.14801078
21	0x3d0238a2	0.03179229
22	0x3cc60ccc	0.024176024
23	0xbd4d230e	-0.05008226
24	0x3e05f35d	0.13081117
25	0x3d4343aa	0.04767195
26	0x3dd74c8b	0.10512646
27	0xbd288384	-0.041141048
28	0x3b8ba356	0.0042614145
29	0x3cfaf1de	0.03063291
30	0x3b5949bb	0.003315552
31	0x3e176bb2	0.14787176
32	0xbddc738f	-0.107642286
33	0x3e030123	0.12793402
34	0xbcd89fcc	-0.026443385
35	0x3d61ee88	0.05515912
36	0x3d6dbe34	0.05804272
37	0x3e129931	0.1431625
38	0xbbed2a26	-0.0072376905
39	0x3b9f746b	0.004866173
40	0x3d568dfa	0.052381493
41	0xbde79676	-0.11307995
42	0x3da7e173	0.08197298
43	0xbd805b8b	-0.062674604
44	0xbcf738ff	-0.030178545
45	0x3e0cc61e	0.1374745
46	0xbcf0ccb0	-0.029394478
47	0xbe219ae2	-0.1578174
48	0x3d303098	0.043015093
49	0xbc42b49c	-0.011883881
50	0x3d6a90c9	0.057266984
51	0x3db40ca6	0.08791475
52	0xbd879faa	-0.066222504
53	0xbdbf1d0d	-0.09331713
54	0xbd5a85b8	-0.05335018
55	0x3caab8ee	0.020840134
56	0xbd9d61d4	-0.07684675
57	0x3dfdb6b9	0.12388367
58	0x3e0e2dbd	0.13884635
59	0xbc29d7bd	-0.010366377
60	0x3e0c9b85	0.13731201
61	0x3d336feb	0.043807905
62	0x3dc4c9b6	0.09608786
63	0x3e0d66f8	0.1380881
64	0x3b505930	0.003179144
65	0xbd984901	-0.074357994
66	0x3daa5b4a	0.08318193
67	0x3cf924f7	0.030413134
68	0xbdaef590	-0.08542931
69	0x3dfc439c	0.12317583
70	0x3e09d94a	0.13461795
71	0x3b861b95	0.0040926435
72	0xbe1b81c0	-0.15186214
73	0x3d5aea61	0.053446177
74	0xbdf4baa1	-0.11949659
75	0x3d16f067	0.03685036
76	0x3bb5fa0b	0.005553489
77	0xbdf32f5d	-0.11874268
78	0xbd687946	-0.05675628
79	0x3e1b7926	0.15182933

network.6.bias f4 [2]
0	0xbc7da26a	-0.015480617
1	0xbd34bcde	-0.04412543
