checkpoints/ric/epoch0.pt (torch, 34338 bytes, 7 tensors)

network.0.weight f4 [16, 6, 5]
000000 ac 3e ed bd e4 9d 97 3d 7b 16 b1 bd 4a b2 43 3d
       -0.11584219 0.07403162 -0.08646866 0.04777745
000010 8f ec 27 be cf c4 1f 3e a3 f8 55 3a a2 4d 9d 3d
       -0.16398834 0.1560242 0.0008162355 0.07680823
000020 9c 00 20 3c dd 9b 66 bd aa 14 1e ba 09 9c b1 3d
       0.00976577 -0.056300987 -0.0006030301 0.086723395
000030 72 17 0e 3e 14 6a 78 bd 8e ff da bd 18 22 8c bd
       0.13876131 -0.06064804 -0.106932744 -0.0684244
000040 a2 d5 b0 bc 1c 90 d8 3b 6d 63 bf bd 3f 4e 98 3d
       -0.021586243 0.006608976 -0.09345136 0.07436799
000050 77 9c 34 3e 04 02 ac 3d 08 82 22 be da e6 6c 3c
       0.17637812 0.08398822 -0.15869915 0.014459336
000060 ae 9a 52 bd 54 f4 be 3c e9 20 d8 bd aa 85 eb bd
       -0.051417045 0.023309864 -0.10553152 -0.11500104
000070 b7 5c c2 3c 91 59 10 be b2 dd ab bd 47 a8 ed bd
       0.02372585 -0.14096667 -0.083918944 -0.11604362
000080 2a 1c 2a bd ed 99 e6 3d 0f b6 04 3e 46 a8 7d 3d
       -0.041530766 0.11259828 0.12960075 0.061928056
000090 05 0c 31 bd 6b 95 0b bb bb ab af 3d 8b cb 08 3e
       -0.043224353 -0.0021298777 0.08577677 0.13358895
0000a0 f1 0b dc 3c 8f ce 3e 3d ae f0 3a be ab e8 09 3e
       0.026861163 0.04658371 -0.18255875 0.13467662
0000b0 3c fb 1b be c4 20 63 3c a6 77 2e 3e 78 e2 da bd
       -0.15232557 0.013862792 0.1703783 -0.10687727
0000c0 cf 7a 5c 3c 67 98 f6 bc ce 38 46 bd 1f 09 00 3e
       0.013457014 -0.030101968 -0.048394017 0.1250348
0000d0 66 5e cb 3d 86 d0 04 3e 23 f7 a9 bd 02 4b 74 bd
       0.099301144 0.1297017 -0.08299091 -0.059641846
0000e0 3c fd c0 3d c0 85 df 3d 5e c0 03 bd df 44 ab bd
       0.094233006 0.10914183 -0.032165878 -0.083627455
0000f0 73 76 30 3e 2e 6f d4 bd 6a db 01 be ce 30 a9 3c
       0.17232685 -0.10372768 -0.12681356 0.020653155
000100 78 a4 0c 3e d9 80 0f 38 18 99 16 be 64 2c db 3d
       0.13734615 3.4213856e-05 -0.14706838 0.10701826
000110 3d bd 90 3d 28 37 d6 3d c1 0b 05 be ef 03 a5 bd
       0.07067344 0.10459739 -0.12992765 -0.08057391
000120 f6 b9 29 3e dd 57 24 3e a9 14 72 3d 30 45 0e 3e
       0.16574845 0.16049142 0.059101734 0.1389358
000130 17 0b c2 3d 6c 85 0f 3e de e4 02 be 1b 71 2d 3e
       0.094747715 0.1401574 -0.12782618 0.16937678
000140 c8 72 10 3d 2a 44 fc bd 57 ec 25 3c 5b 43 08 bd
       0.035265714 -0.12317689 0.010127149 -0.03326736
000150 a7 bb 6c 3d a5 ea 09 be 34 dd 87 3d 21 6c 3e bc
       0.057796147 -0.13468416 0.06633988 -0.01162246
000160 20 5b 28 be 9d e2 3a 3e 5e 10 27 3d f3 c2 b5 bc
       -0.16441011 0.18250509 0.040787093 -0.022187686
000170 d8 05 36 be da 7a f7 3d 6d 20 33 bc ae 3f 29 be
       -0.17775667 0.12083979 -0.010933024 -0.16528198
000180 c3 7a d4 3d bc 35 0a 3e 85 47 26 3e 05 52 b3 3d
       0.103749774 0.1349706 0.1623822 0.08755878
000190 7b c1 30 3d c8 a9 05 bd 6b 17 0e be 29 5f 12 3b
       0.043153267 -0.03263262 -0.13876121 0.0022334552
0001a0 11 e6 c6 bc 52 74 6b 3d b6 14 29 3e 2c d6 c2 bb
       -0.024279626 0.05748398 0.16511807 -0.0059459414
0001b0 de 9f 30 bc 04 9e 22 3d 6a 0f b7 bd d3 3b d3 bd
       -0.010780303 0.039701477 -0.08938487 -0.10314145
0001c0 0a 1a fa bd ca 92 a5 bd f9 38 6c 3d b8 07 80 bc
       -0.12211998 -0.080846384 0.05767152 -0.01562868
0001d0 38 d1 10 bd 4b 9d d5 bd 60 3b 92 bc 0d 43 c5 bd
       -0.035355777 -0.10430392 -0.017850578 -0.096319295
0001e0 c1 7d 96 bc b9 98 29 3e ba de e8 bd 80 f9 c2 bd
       -0.018370511 0.16562165 -0.11370607 -0.095202446
0001f0 38 06 fa 3d a7 5f 9d bd c3 b2 17 3e 8a 71 91 3c
       0.122082174 -0.0768426 0.14814286 0.017754335
000200 09 07 b2 3c 0d 9b 22 be 94 5b e4 3d 1f e8 28 be
       0.02173187 -0.1587946 0.1115028 -0.16494797
000210 86 ff f7 3c 3a dd 47 bd 4f 82 da bc 89 62 4d bc
       0.03027321 -0.048794962 -0.026673464 -0.0125357
000220 64 98 b3 bd 0a 25 94 bb db a2 fe bd 3f 2e d6 bd
       -0.087693006 -0.004521017 -0.12433406 -0.104580395
000230 29 95 08 3e 4a ab 4d bd 89 9e 39 be a8 44 20 be
       0.1333815 -0.050212182 -0.18126883 -0.1565119
000240 7a 00 b6 bc 45 e0 ad 3d b9 74 03 be e7 b7 ae 3d
       -0.022217024 0.08490042 -0.12837495 0.0853117
000250 17 39 11 be 0d 33 06 be 57 c9 34 3e bf 1b 29 be
       -0.14181934 -0.13105412 0.1765493 -0.1651449
000260 4e de ba bd 96 57 79 3c 81 5d 5f bc fe 76 1f 3d
       -0.091244325 0.015218636 -0.013633133 0.03893184
000270 42 ce 79 bc f4 2a ff bd ac 88 ca bd f9 3c 12 bd
       -0.01524693 -0.124593645 -0.09889349 -0.03570268
000280 a4 47 54 3d a3 84 f9 3c 6d 79 71 3c f3 8b 9d bd
       0.051826134 0.030458754 0.014738423 -0.07692709
000290 b4 36 1b 3e 10 e4 c0 3d a6 6d 9b 3d 5f 30 37 be
       0.15157586 0.094184995 0.07589273 -0.17889546
0002a0 ff c7 2e be 87 34 ce bd 84 e9 35 be ab 41 c1 bd
       -0.1706848 -0.100686125 -0.1776486 -0.09436353
0002b0 81 39 e6 bd e1 a4 74 bd 93 f5 04 3e 9a 74 5c 3b
       -0.11241437 -0.059727553 0.12984304 0.0033638836
0002c0 40 ce 2b be 5c a7 28 be 26 71 ba 3d 81 e3 14 3e
       -0.16777897 -0.16470093 0.091036126 0.14539911
0002d0 2f 80 c3 3d 51 ce 0a 3e 45 40 83 3c e9 0f 29 3e
       0.095459335 0.13555266 0.016021857 0.16509975
0002e0 a5 e4 95 3d e9 57 d0 3d 82 10 61 bd 32 f8 fd 3d
       0.07319001 0.101730175 -0.054947384 0.12400855
0002f0 5e 13 20 bd c2 4d ee bd 2c 5a 92 bd 11 c1 26 be
       -0.03908097 -0.11635925 -0.07146105 -0.16284586
000300 9c b3 e9 3d 1a 25 95 bd ea 9c ff bc 35 5b 30 be
       0.11411211 -0.07282467 -0.031202752 -0.17222293
000310 42 9f 59 3d 1c 34 f2 3d 26 0d 6a 3d 4d ac 23 be
       0.053130396 0.11826345 0.057141446 -0.15983696
000320 9b 14 2e be 74 24 d6 3c 55 58 fa bc fd 8d 99 3d
       -0.17000048 0.02614043 -0.030559698 0.07497785
000330 89 37 39 3e fc 69 26 3e e6 4d fd bd f4 85 29 3d
       0.18087591 0.16251367 -0.123683736 0.041387513
000340 75 5a 9c bd 5a 9f b0 3d fe 64 c0 bc 2e 5d be bd
       -0.07634441 0.08624144 -0.023485657 -0.09295116
000350 eb 95 df 3c bb 49 1d 3d 13 31 e4 3c 17 e9 1b bd
       0.027293166 0.038400393 0.027855432 -0.03806409
000360 d3 0c 5d bd 66 09 0e be e5 80 17 bd 1f 4b 20 bd
       -0.05396731 -0.13870773 -0.036988158 -0.03913414
000370 0e 70 89 bb 36 e5 21 3e 3f 06 aa 3d 53 86 23 be
       -0.004194266 0.15810093 0.083019726 -0.1596921
000380 7c c2 76 3d 71 a7 13 3e 2e b7 cd 3d 3b 80 e7 3d
       0.06024407 0.14419343 0.100447044 0.11303755
000390 98 9f 38 be 6a 49 a1 bd 03 86 e9 3d 8d 63 34 be
       -0.1802963 -0.07875331 0.11402514 -0.176161
0003a0 9f a6 1f bd f4 ea 8b bc 3a 74 26 be 5e 04 a1 3d
       -0.03897726 -0.017079808 -0.16255274 0.07862161
0003b0 21 76 0c 3e 5f 41 45 bc 49 6e 42 bd f9 3b c1 bd
       0.13716938 -0.012039511 -0.047468457 -0.09435267
0003c0 70 c9 8d bd 23 a4 f8 bd cc 95 01 bd e7 67 1f be
       -0.06923187 -0.121406816 -0.031636998 -0.1556698
0003d0 ad d8 e7 39 8d 39 e3 bc d7 4f 9b bd a3 05 b0 3c
       0.0004422119 -0.027737403 -0.075835876 0.021487063
0003e0 e4 9f 0a 3e 75 87 90 bd b1 7b 12 3e b1 63 a0 bd
       0.13537556 -0.070570864 0.14304997 -0.078315146
0003f0 90 7b b6 3d f3 9f ae 3d c6 67 27 bd 74 13 cc bd
       0.089102864 0.08526602 -0.04087045 -0.09964648

network.0.bias f4 [16]
000000 db df 28 3e c4 d2 04 be b3 0c 39 3e 79 b2 99 bd
       0.16491644 -0.12971026 0.1807125 -0.07504744
000010 0c cc 2e 3e a0 42 d3 bc 36 1d 0f be fd 59 b5 3d
       0.17070025 -0.025788605 -0.13975987 0.088550545
000020 b6 48 f3 3c 96 cb 14 be 2d 0b 4a bc ae 44 09 be
       0.029697757 -0.14530787 -0.012331766 -0.13405105
000030 16 29 e7 bc 07 3c 75 3d cd a5 bf bd 7a 4d 21 3e
       -0.028217833 0.0598717 -0.09357796 0.15752211

network.2.weight f4 [16, 16, 5]
000000 c6 a2 82 3d e3 1a 8f bd 6d d4 c7 bd aa 39 d6 3c
       0.06378703 -0.0698755 -0.09757314 0.026150543
000010 50 21 00 3d 9f c0 ca bd 9e 69 98 bd ab 52 1b 3d
       0.03128177 -0.09900021 -0.0744202 0.037920635
000020 3d 86 cc 3d c7 5f c0 3c c4 f1 cc 3d a1 5f 79 bc
       0.099865414 0.02348317 0.10007051 -0.015220554
000030 0a c4 86 3c 8f a0 15 bd 6f 05 5d bd 18 20 f7 3c
       0.0164509 -0.036530074 -0.05396026 0.03016667
000040 9f 73 d0 3c 02 d9 b2 3d c5 ae a5 3c 2e 32 44 3d
       0.025445757 0.08732797 0.020224938 0.047899418
000050 1e 65 c6 bd b2 89 a5 bd 4b 4c df bb c9 73 5c bc
       -0.09687255 -0.08082904 -0.0068145148 -0.01345534
000060 de bb 17 bd 73 b2 2d bc a4 ec 9e bd c0 f6 89 3c
       -0.0370444 -0.010601628 -0.07759979 0.016841292
000070 9a 58 c5 bb b8 72 06 3d 81 18 84 bb a9 d4 80 3c
       -0.006022525 0.032824248 -0.0040312414 0.015726404
000080 40 f9 d8 3d f0 01 8e bd d2 2c 99 bd 7a 68 87 bd
       0.10594416 -0.06933963 -0.07479252 -0.06611724
000090 d4 a8 bd bd da a1 c7 bd 12 39 63 3a 23 74 28 bd
       -0.09260717 -0.097476676 0.0008667867 -0.04112638
0000a0 7d 9a 05 bd 6d ad e4 bd b9 69 81 bd 77 39 e0 3d
       -0.032618035 -0.11165891 -0.06318993 0.109484605
0000b0 4e d2 13 bd f4 fb b5 3d 01 58 21 3d 08 71 d5 3c
       -0.036089234 0.08885947 0.039390568 0.026054874
0000c0 ce 00 c4 3d 83 96 f3 3c ad 75 d7 bd d1 7b 15 bd
       0.09570466 0.029734856 -0.10520492 -0.036495034
0000d0 f0 de 7d 3d fd e4 56 bd 14 49 d6 bd c1 6d d1 3c
       0.061980188 -0.052464474 -0.10463157 0.02556503
0000e0 73 d0 95 bc 07 6e 45 3d e4 3f 87 bd f9 a6 8a 3d
       -0.018287873 0.048200633 -0.06603983 0.06770129
0000f0 87 a0 4a 3b 26 7d 02 bd 76 0e cd bd e7 5f dc bd
       0.0030918436 -0.031857632 -0.10012524 -0.107604794
000100 7c ba 08 bd 05 a9 f5 bc f5 0e a9 3d 47 7d 11 3d
       -0.03338097 -0.029987821 0.08254806 0.035519864
000110 26 16 c1 3d e8 00 d0 3d 4d ee dd bd 35 60 a4 bd
       0.094280526 0.10156423 -0.10836468 -0.080261625
000120 2f fc 81 3c df 3e 73 bd 1a 49 1f bd 69 1b 85 bd
       0.01586732 -0.05938613 -0.038888074 -0.06499369
000130 aa 62 45 3c 26 8d 93 3d 82 69 15 bc a3 a3 74 3d
       0.012047449 0.07204656 -0.009119393 0.05972637
000140 8f d2 94 bd 68 ab ca 3d 42 08 c1 3d 32 8b b8 3b
       -0.07266723 0.098959744 0.09425403 0.0056318277
000150 0d dc 44 3c 69 1a 44 3a 3c c8 a5 bb 88 f4 b5 3d
       0.012015355 0.0007480742 -0.00505927 0.08884531
000160 f0 6a 26 bd 8a 83 83 3d e4 76 cf bd d9 e1 8c bc
       -0.040629327 0.064215735 -0.101300985 -0.017197536
000170 0d 9a a3 3d 69 78 a6 3c 5b b2 c0 3d 22 64 c2 bd
       0.07988367 0.020321088 0.094090186 -0.09491755
000180 10 fb bf bd 9b 71 ce bc 5f d5 a8 3d 1b 6b ca 3d
       -0.09374058 -0.025200656 0.08243822 0.0988371
000190 dd 75 ac bd 82 0a 46 3d 73 28 bd 3d 1c d5 17 bd
       -0.08420918 0.048349865 0.09236231 -0.03706847
0001a0 2b b8 4e 3d e7 13 30 bd 0d fa 32 3d 06 f5 81 bd
       0.050468605 -0.04298773 0.0436955 -0.06345563
0001b0 0d 9a af bd 2e fc bc bc 02 27 cf 3d 77 05 a0 bd
       -0.08574305 -0.023069467 0.10114862 -0.07813542
0001c0 27 a0 33 bd 94 e0 86 bd 38 7d 18 3c 9b 98 3b bd
       -0.043853905 -0.06585804 0.009307198 -0.045799833
0001d0 91 89 61 bd 55 d2 39 bc 09 12 cb 3d 52 c4 bc 3d
       -0.055062834 -0.011341651 0.09915549 0.09217133
0001e0 91 fb a9 3d 54 f0 1c 3d e7 dc 99 bd 3e a5 45 bd
       0.082999356 0.038315132 -0.07512837 -0.04825329
0001f0 ff 8f 8d 3d f0 62 41 bd b4 18 a8 3d 57 f7 8a 3d
       0.06912231 -0.047213495 0.08207837 0.067854576
000200 9b 3e 07 bc 92 c3 94 3d 17 8d b4 bd b5 11 56 bd
       -0.008254672 0.072638646 -0.08815973 -0.05226298
000210 5f c2 19 bd 46 d5 1e bd c2 2b 99 3d 05 a9 c3 3d
       -0.037538882 -0.038777612 0.07479049 0.09553722
000220 10 d0 9a 3d e8 e0 55 bd 8d 45 2c 3d ff aa d1 bc
       0.07559216 -0.05221644 0.042058516 -0.025594233
000230 d5 d9 bd 3d 22 15 1a bc 59 0f 57 3d 28 e5 48 3d
       0.09270064 -0.0094044525 0.05250487 0.049046665
000240 d3 ac 5f bd 66 e7 33 3d 9b 44 20 bd ec 67 09 bc
       -0.054608177 0.04392185 -0.039127927 -0.008386593
000250 28 42 26 bd cd c5 a3 bd 42 3d 8b 3d 4f ed d9 3d
       -0.040590435 -0.07996712 0.067987934 0.10640966
000260 4f 03 8f 3c 0a 55 17 3d ba df cc bc c8 5f 44 bd
       0.017457632 0.036946334 -0.025009025 -0.047942907
000270 78 4f d4 3d 8e 55 b6 bd af 2d 80 bd 59 25 9b bc
       0.1036672 -0.08903037 -0.062587135 -0.018938707
000280 ce cb 30 3b 45 bd 03 bd 39 d1 d8 bd 43 7b ae bd
       0.0026976946 -0.032162923 -0.10586781 -0.08519604
000290 00 66 06 bd 3c a0 c3 bc c9 37 86 bd 01 8f 3c 3d
       -0.03281212 -0.023880117 -0.06553609 0.046034817
0002a0 f2 49 47 3d 17 7b 86 3c 37 c1 14 bd 95 e5 ad bd
       0.048654504 0.016416116 -0.036317077 -0.08491055
0002b0 f3 a8 d9 3d a2 a0 28 bb d1 0b c2 3b 3b b3 9e 3d
       0.10627928 -0.002573051 0.005921819 0.07749029
0002c0 80 b3 30 bd f5 68 d2 3d 17 05 96 bd 1f f4 89 3d
       -0.043139935 0.10273925 -0.073251896 0.067360155
0002d0 f2 e3 15 3d b2 4d 9d bd fa 08 d1 3d a4 8d bb bd
       0.03659434 -0.07680835 0.1020679 -0.09157875
0002e0 40 8f 97 3d fd 8d 9f 3d 15 1d fc 3c 8f f9 cd 3c
       0.0740037 0.07790754 0.030775586 0.025143413
0002f0 c2 de ab bd 1c f7 ad bd cd 41 60 3d 39 fa d2 3d
       -0.08392097 -0.08494398 0.054750253 0.103016324
000300 29 91 81 bb d0 be b7 bd 85 9a 83 bd f3 34 c4 bd
       -0.003954072 -0.089719415 -0.06425957 -0.09580412
000310 08 ff b7 bd ff 7c 11 3d 68 be 8c bc 7e 0a cd 3c
       -0.0898419 0.035519596 -0.017180637 0.025029417
000320 02 16 54 bd 8a 54 31 3c c0 54 0b 3c 42 0d 84 bd
       -0.0517788 0.010823378 0.008504093 -0.06447841
000330 9d db aa 3b c5 6b 61 3d e6 62 ac 3d 39 9b 01 bc
       0.005214168 0.055034418 0.08417301 -0.007910543
000340 0a a6 85 3d b0 92 83 3d 5e 92 0a bd c9 24 67 bd
       0.0652581 0.06424463 -0.033830993 -0.056431565
000350 fc cd a0 3c ab 7d 95 3d 8c 69 c2 bd 35 5c 2e 3d
       0.019629471 0.0729936 -0.09492788 0.042568404
000360 b8 e4 2f bd 18 be a5 bd 17 e2 f1 bb aa b2 58 bc
       -0.042942733 -0.08092898 -0.0073816883 -0.013226191
000370 7d 62 c1 3d ec 1b 99 3c e4 ac d2 3d 7c ec 0c 3d
       0.09442613 0.018690072 0.102868825 0.034405217
000380 31 be da bd 0a 96 36 bc 75 60 81 bd 88 3b cb 3d
       -0.106808074 -0.011144171 -0.06317226 0.09923464
000390 90 bd b3 3d 02 1e 21 bc da 23 1b 3d 32 1c b4 bc
       0.087763906 -0.009833815 0.037875988 -0.0219861
0003a0 0c 70 c2 bd 2d b2 6e 3d e2 ea 1f 3d c4 c4 f0 3a
       -0.094940275 0.05827539 0.03904236 0.0018369188
0003b0 dc 00 c2 3a 86 a5 a0 3d fb 4e 32 bd 45 01 98 bd
       0.0014801282 0.07844071 -0.043532353 -0.07422117
0003c0 3b e3 f0 bc 7a 4e 41 bd 9b b0 a6 bd 13 00 b3 bd
       -0.029405227 -0.04719398 -0.081391536 -0.087402485
0003d0 14 02 b9 3d 7e 5d c8 bd e9 d3 02 bd be 02 03 bd
       0.090335995 -0.09783457 -0.031940375 -0.031985037
0003e0 be b7 61 3d b9 5c 79 3c 51 63 8d bd 45 00 14 3c
       0.05510687 0.015219861 -0.06903709 0.009033267
0003f0 16 65 d2 3d 82 ec 7d 3d c0 9e 84 bc 3d 9a 82 bd
       0.10273187 0.06199313 -0.01618898 -0.06377075

network.2.bias f4 [16]
000000 82 cf ad 3d d1 15 02 3d 2d a4 43 3c 50 46 d0 3c
       0.084868446 0.031759087 0.011940998 0.025424153
000010 8a 11 75 bd 10 80 b0 3d 41 f5 2f 3c b0 37 2d 3d
       -0.05983118 0.08618176 0.010739625 0.042289436
000020 ee 4a bc bd 25 40 a7 3c 1e 80 05 bc 09 fd 72 3d
       -0.09193979 0.020416329 -0.008148221 0.059323344
000030 75 95 cd 3d 61 39 e3 3d a8 eb aa 3c 06 51 4a bd
       0.10038272 0.110949285 0.020864323 -0.049393676

network.4.weight f4 [8, 16, 5]
000000 8a 93 a9 3d e3 56 92 3d f0 cd 4b 3d e1 9e 78 bd
       0.08280094 0.071454786 0.049756944 -0.060698394
000010 4b 18 a9 bc 40 b4 d4 3c 00 8d 67 bd 85 89 82 bd
       -0.020641467 0.025964856 -0.056530952 -0.06373886
000020 60 35 df ba 3a 5c d3 3d fb 89 19 3d 4f f7 6d bd
       -0.0017029457 0.10320325 0.037485104 -0.05809718
000030 e0 3a fa b9 c5 7f 49 bd f3 58 eb 3c 83 82 45 bd
       -0.0004772758 -0.049194116 0.028728938 -0.04822017
000040 64 03 ea 3b 24 7d 90 3d 35 a4 d3 bd 2d 0e d5 3d
       0.0071415175 0.07055119 -0.103340544 0.104030944
000050 94 36 c1 3d a6 81 9f bc b9 95 c8 3d 14 64 ac 3d
       0.09434238 -0.019471 0.09794182 0.08417526
000060 0e fc cb 3d 6d 91 73 3c 5a ae 63 3c e1 a8 4e bd
       0.09960185 0.014866215 0.013896549 -0.050454024
000070 06 cc 79 3c 6e ab ea bc fd c7 d5 bb f3 54 71 3d
       0.015246397 -0.028646197 -0.0065240846 0.058918905
000080 f1 b6 83 bd 9c d7 93 bd f1 91 90 3b 35 48 7a 3d
       -0.06431378 -0.072188586 0.004411929 0.06110402
000090 a5 17 bb 3d 4e 6c 93 bd ba 7b ef 3b 2a a5 b9 3d
       0.09135369 -0.07198392 0.0073084505 0.09064706
0000a0 d2 88 a9 3c 96 73 b8 bd f5 29 d8 bd 02 86 a0 3b
       0.020695124 -0.09006421 -0.10554878 0.0048987875
0000b0 98 45 4d bd 9c bf da 3c 3e 1d e8 3c ea e8 e6 bb
       -0.050115198 0.026702695 0.028334256 -0.0070468085
0000c0 06 bc 20 bd ea b4 5e 3d 83 44 c6 bd 64 1a a6 bd
       -0.039241813 0.05437175 -0.09681036 -0.08110502
0000d0 65 0f d3 bc b8 88 dd 3d e9 81 8b 3d 0f ce e3 3d
       -0.025764177 0.10817093 0.06811888 0.11123287
0000e0 7b 57 2d 3d e9 8a de 3d a1 d4 4a 3b c7 c8 ab bd
       0.042319756 0.10866339 0.003094949 -0.083879046
0000f0 02 0c c0 bd fb 8e 94 bd 75 f3 ab bc 65 3e f9 bc
       -0.0937729 -0.07253834 -0.020990113 -0.03042526
000100 1a ce 99 3d 94 0e ad bd e3 c5 95 3d 58 8f ce 3d
       0.07510014 -0.08450046 0.073131345 0.100859344
000110 6e d7 4e 3c 26 d4 99 3d 4d 7d 63 3d 7a 97 ab 3d
       0.012624605 0.07511167 0.055539418 0.08378501
000120 4f 78 b9 3d 5f b6 e1 3d 67 13 9c 3d 48 d9 7e 3d
       0.0905615 0.11021113 0.07620888 0.062218934
000130 fc 6f 30 bd b8 63 04 3d d4 9b c7 bc c6 24 13 3d
       -0.043075547 0.03232166 -0.024366297 0.03592374
000140 59 d8 8d 3d 58 fc aa 3d b5 af 3c 3d 2e de d5 bc
       0.06926031 0.08348912 0.046066005 -0.02610692
000150 7b 76 2d bd 80 a7 b3 3c 40 56 83 bd d9 c0 bb bd
       -0.04234932 0.021930456 -0.06412935 -0.09167642
000160 1a e5 a2 3c 1f ad ac bd 7f 54 56 3d 7b 85 cc bd
       0.019884635 -0.08431458 0.052326676 -0.09986397
000170 7b 0b da bd 52 2e 32 bd c6 dc 6e bd 87 14 0f 3c
       -0.10646721 -0.043501206 -0.058316015 0.008732921
000180 2a 9a 66 bd 81 36 19 3d 4b e0 a9 3d e7 ee b8 3d
       -0.056299366 0.037405495 0.082947336 0.09029942
000190 c3 5a 0d 3d 23 2b 63 bd a1 a3 8c 3d 23 2e 3a 3d
       0.034510385 -0.05546106 0.06867147 0.045454156
0001a0 32 45 ba bd 0e 3c c4 bd 42 6b 2e bc c0 f5 a7 3d
       -0.09095229 -0.09581767 -0.010645689 0.0820117
0001b0 ed ba b9 bd 1c e6 42 bd b3 08 0e bc 98 5f 13 bd
       -0.090688564 -0.04758273 -0.008669066 -0.035979837
0001c0 2c 15 c3 3d 8d 6f c5 bd 2d 37 d2 3d af bd 07 3d
       0.095255226 -0.09640417 0.1026443 0.03313988
0001d0 4b 24 18 3d a8 2d 9b bd 68 2c 85 bd 23 18 cf 3d
       0.037143987 -0.075770676 -0.065026104 0.101120256
0001e0 d1 69 24 3d ad c7 c3 3b 09 59 5d 3d ab 41 bd bc
       0.040139977 0.005974731 0.05403999 -0.023102602
0001f0 3f da e8 3c db 10 19 bd 78 4a 9e 3b c2 ce 41 3d
       0.02842438 -0.03736959 0.0048306547 0.04731632
000200 78 a0 23 3d 9f 8c bc bd 9d 00 d5 3c ac 5d 79 bd
       0.039947957 -0.09206509 0.026001269 -0.060880348
000210 dc 35 a6 bd 92 0b 88 bd 8a d6 de bc 8e fb 72 3c
       -0.081157416 -0.06642832 -0.02720191 0.014830483
000220 70 4d ab bd 45 21 8a bd 03 6d ad bd 2f a5 bf bd
       -0.083643794 -0.06744627 -0.08468058 -0.09357678
000230 07 6e dd 3c e8 e0 ed 3c dc f2 07 bd ec ef a0 bd
       0.027030004 0.029037908 -0.033190593 -0.078582615
000240 1a 15 e5 3c 72 3e 84 bd 69 82 59 bd 08 99 11 bd
       0.027964164 -0.06457223 -0.053102884 -0.035546333
000250 8a cf e3 3d 1e d6 a0 3d 3e 9c dc bd 91 47 ce bd
       0.11123569 0.078533396 -0.10771988 -0.10072244
000260 d6 97 2b 3d 56 38 a5 bd fb 5a 99 3d c6 18 b4 3d
       0.04189285 -0.08067386 0.07488056 0.08793788
000270 6c 95 6b 3d 58 b7 cf 3c 64 97 de bd f7 b1 e2 3d
       0.057515547 0.02535598 -0.10868719 0.110691
000280 a2 86 a0 3d a3 4d 39 3d 39 9e 98 bd f3 bc 31 3d
       0.07838179 0.045240056 -0.074520536 0.043393087
000290 2c 2a c7 3d 9d ba 81 bc ef 93 d1 bc 48 ea b3 bd
       0.097248405 -0.015836054 -0.025583236 -0.0878492
0002a0 c6 71 0a 3d 95 ed 99 3c 00 c9 bb 3b d1 95 e5 3b
       0.03379991 0.018790046 0.005730748 0.007006385
0002b0 e6 9a cb bd d7 c9 b8 bd 52 60 e3 bd 6c e9 59 3a
       -0.09941654 -0.09022873 -0.11102356 0.00083126756
0002c0 83 44 1a 3d e2 d3 d3 3d 2f c5 be bd 4b fb c4 3d
       0.037662994 0.10343148 -0.093149535 0.09618243
0002d0 bf 33 c3 3d f4 b8 21 bd ec 07 fb 3b 13 d3 d0 3c
       0.09531354 -0.039483026 0.0076608565 0.025491273
0002e0 7e af e0 3d 7f 80 ce bd c2 b5 e2 3c a0 39 05 bb
       0.109709725 -0.100831024 0.02767456 -0.0020328537
0002f0 6b 4e d4 bd 0b 3f de bd aa 78 75 bb d4 b2 e4 bd
       -0.103665195 -0.10851868 -0.0037455955 -0.11166921
000300 7b 3c 2c bd f2 af 53 3d f0 76 0e 3d e6 c9 8e 3a
       -0.042049866 0.051681466 0.034781396 0.0010893911
000310 46 12 6a bd cf 67 f3 bc c0 ae 6e bd 19 b1 b7 bc
       -0.057146333 -0.029712586 -0.058272123 -0.022423314
000320 41 6e cf 3d db 54 44 bd c0 1f cd 3d fe 19 d5 bd
       0.10128451 -0.047932487 0.100158215 -0.10405348
000330 34 36 15 3d 24 76 e2 3c 2c 63 a9 3d 0a 80 d1 bd
       0.036428645 0.027644224 0.08270869 -0.102295
000340 12 8e 7b 3d 8e 09 34 bd 70 7d 8b bd 95 1d a9 3d
       0.061414786 -0.043954425 -0.06811035 0.082575954
000350 42 c0 c2 bd e3 7e 48 bd e3 70 25 3d 68 d1 ae bd
       -0.095093265 -0.048949134 0.04039086 -0.08536035
000360 2c 97 21 3d fd b8 d4 3d d6 b9 b9 bd 98 c0 a3 3d
       0.03945081 0.10386846 -0.090686485 0.07995719
000370 3d 8a 78 3d 74 cd ca bd 64 f3 1e 3d 82 34 fe 3c
       0.06067871 -0.09902468 0.038806334 0.031030897
000380 1b 5d c4 bd 37 51 d3 bd 51 fc 9f bd 64 7f 93 3c
       -0.09588071 -0.10318225 -0.078117974 0.01800508
000390 ae 61 7e 3b 1f d8 c2 3d b4 e5 76 3d 85 20 8c bd
       0.0038815546 0.09513878 0.060277656 -0.0684214
0003a0 e4 9e d1 3c 16 f1 c8 bd 04 fd ca 3d e2 b9 5c 3d
       0.02558846 -0.098116085 0.0991154 0.05388821
0003b0 7b ad 2a 3d 89 b2 dc bd f7 cf 3d bd 83 94 17 3d
       0.04166935 -0.107762404 -0.04634091 0.037006866
0003c0 ec e7 98 bd b7 4f dd bd 9a 8e 94 3d 1d b5 51 bd
       -0.074661106 -0.1080622 0.072537616 -0.051198114
0003d0 ce cb 74 bd 2b ee 2f 3d 25 4b 4d bc 2c b5 78 3d
       -0.059764676 0.042951744 -0.012530123 0.060719654
0003e0 82 ee 41 bd 34 9d c4 3d 30 13 a7 3d fb 15 b9 bd
       -0.0473466 0.096002966 0.081579566 -0.090373956
0003f0 86 cb 11 3d f4 95 97 3d e2 9d 22 bc 8d 44 c0 3d
       0.035594486 0.07401648 -0.0099253375 0.09388075

network.4.bias f4 [8]
000000 d9 3d c3 3d 7b 05 ae bd 7a 94 76 bc 45 5d 80 bd
       0.09533281 -0.08497139 -0.015050048 -0.0626779
000010 72 f1 ca bd ae bf 05 3d 4f 83 d8 bd 03 5e d2 bd
       -0.09909333 0.032653503 -0.1057192 -0.102718376

network.6.weight f4 [1, 8, 5]
000000 2d b8 2d 3d 02 04 aa bd 95 f5 fa 3d 18 42 99 3d
       0.04241197 -0.08301546 0.12253872 0.074833095
000010 d1 33 20 be 9e df e2 3d cb 92 6f 3d 00 2a 68 3d
       -0.15644766 0.11077808 0.058489602 0.05668068
000020 d5 28 51 bd 2c 01 b2 bc 9f 6e 78 bc 72 5c 1f 3e
       -0.05106433 -0.021729074 -0.015163093 0.15562609
000030 c8 e1 dd bd 6c fd 18 3e b2 4f b5 bd 57 7c 38 bd
       -0.1083408 0.14940423 -0.08853091 -0.045040455
000040 f0 64 f8 3c 52 e3 b6 3d 0e 70 8c 3d 7e 42 0b be
       0.030321568 0.08930077 0.0685731 -0.13599584
000050 7d 5b 04 bc 2b 53 b4 3c f8 4f 1b be 90 e3 05 be
       -0.008078453 0.022012314 -0.15167224 -0.1307509
000060 4d de 9e 3d 97 33 0b 3d 51 2d 1a be 50 29 fc bb
       0.07757244 0.033984747 -0.1505635 -0.0076953545
000070 96 e4 da bc 74 cc 93 bd 20 90 8d bd 44 5c dc 3c
       -0.026720326 -0.07216731 -0.06912255 0.026899464
000080 75 ad 42 bd 54 f8 ae bd 7d 44 32 3d 84 b3 a7 bd
       -0.047528703 -0.085434586 0.043522347 -0.08188537
000090 fc c1 c1 3d cf ae 00 3d 07 3a 84 3d 5e 9c 4d 3d
       0.09460828 0.03141671 0.0645638 0.05019795
